data.pth (torch, 35711 bytes, 6 tensors)

l1.weight f4 [8, 610]
00000000: b149 0140 f1d9 e03f ac41 3440 9802 5740
00000010: 3f60 5340 f2f2 5140 a43a 5140 8d57 4e40
00000020: 9171 5140 194b 5040 d692 5040 b7a8 783f
00000030: 24a7 963f 43ee 6c3f e81f 43bf f0b8 3fbf
00000040: 5b95 45bf bb3a 41bf 3a1b 42bf 1771 3fbf
00000050: fbba 42bf fa41 41bf 8e24 40bf 17f5 43bf
00000060: d172 3fbf 3b14 42bf fffa 44bf e155 45bf
00000070: 2fc7 3fbf 4ef3 3fbf 773e 3bbf c7f2 3abf
00000080: 0231 3ebf b8be 39bf 0c65 3bbf fe57 3bbf
00000090: 8f5d 3ebf 7ad9 3ebf daef 3abf b0b7 3bbf
000000a0: 701d 3cbf fbb4 3abf 68b2 3dbf 618e 3abf
000000b0: aad2 3ebf 0337 40bf a187 40bf 9e9c 41bf
000000c0: 1b15 42bf 44d9 3fbf 79f1 3fbf 7fe8 3fbf
000000d0: 8f5e 41bf dcac 3fbf b3b7 42bf 5132 493f
000000e0: 9310 533f 0610 533f aa3a 403f e147 4b3f
000000f0: 05e1 483f 9bd6 503f e145 513f a062 4e3f
00000100: 0fcf 443f 9f9e 7a3f 8ea8 b93f 1834 b43f
00000110: 4e5d bb3f fe6a b33f 4d63 ba3f f720 b63f
00000120: 3d81 e23f ea08 b33f 5c0f b73f 87f0 b43f
00000130: 1439 ba3f d366 b63f 9d09 ba3f ceea b13f
00000140: f1b3 42bf 20ef 3dbf 85f6 44bf 567f 3bbf
00000150: 2f77 00bf 6165 42bf 71b9 45bf d2cb 3dbf
00000160: 9d60 43bf 5724 3bbf fa07 55bf 9353 4cbf
00000170: 2e47 54bf 1fac 4bbf f2da 54bf 0d48 4cbf
00000180: c0f4 d03f f9c7 c23f 83ed da3f d799 c13f
00000190: 5c9b d43f 6d32 c83f fa39 3cbf 9938 453e
000001a0: 8f46 783e 4d4e 903e 9dac 763e c09a ad3e
000001b0: 2cfa c33e 47d0 b33e 1d90 b23e 4e01 b23e
000001c0: e12e c73f aaf8 ab3f 9cc8 903f eafe 9d3f
000001d0: a8eb 933f 2f48 963f ecb4 963f d9f6 8f3f
000001e0: 851d 9e3f 9f20 933f 037a 933e f1a0 efbe
000001f0: e442 a7bf b71c a1bf 9c3b a4bf 6b60 a1bf
00000200: 0f1a a4bf 2f1d a3bf 20bb a5bf 3f81 a2bf
00000210: 768f a3bf e3f2 a0bf 2e7a 6440 b239 5740
00000220: 37de 5b40 db42 5140 024a 5c40 02bc 4e40
00000230: 38e9 f2bc 9b1f 1f3b 8db1 7ebf 1e84 923e
00000240: 8c0b 4440 1bbd 3440 f55d 8040 8a36 7b40
00000250: 135e 7c40 4d56 6b40 3771 5f3e c102 743e
00000260: afa7 08be 80b1 6abe d99b 0dbe 25b8 efbd
00000270: 7005 9bbf 6abc 96bf 27d0 7d3e ea71 96bf
00000280: a8ff 2e3f 48c9 013f 2166 7b3c 3047 fe3d
00000290: 93d6 313f 07aa 063f 7049 b03f 08ef a13f
000002a0: 3261 ad3f 7af3 9b3f a9d1 b03f 96f5 33be
000002b0: dcb0 b2bf cdc0 42bf ea77 b5bf f858 aabf
000002c0: f67d b4bf 3eb9 abbf 2430 aabf f3c4 a4bf
000002d0: 3d71 aabf 2044 a5bf 54ad 033f 331a a0bf
000002e0: 2c98 183f 0baf e83e 365d 083f e8fc e83e
000002f0: 40f1 c63f f731 b03f 455a c53f 2af7 b13f
00000300: 41b7 c33f ae1b b13f c6c1 c53f b728 b13f
00000310: b8b5 c03f 7ab1 b13f 8567 443f 06ad 0c3f
00000320: 6301 473f af2f fa3e cc5f 9bbe e011 0dbf
00000330: 969b 93bf 60de 93bf 6b51 94bf a592 94bf
00000340: fdc4 93bf 6a7a 94bf 1956 993e 8aa7 543e
00000350: 9048 a43e fd3a 4e3e 03d5 a73e f00f 653e
00000360: b788 a63f b919 923f 9afe a73f eacd 953f
00000370: 6952 a73f e407 8f3f 4b85 0e3f 9814 a0bf
00000380: cfd6 b0bf b701 acbf bcc7 b1bf 45c4 abbf
00000390: 7ba6 b1bf 8d2a acbf d399 b1bf 45af abbf
000003a0: 45ed b1bf cfdc abbf 7487 b1bf 852a acbf
000003b0: 4f2d b6bf e7bf b1bf dd4e b6bf 5ed2 b2bf
000003c0: 1646 b7bf c2b8 b2bf 246b abbf 02af 91bf
000003d0: 72e9 b5bf 1e85 b1bf da6e b6bf 84ed b2bf
000003e0: c414 b6bf 4a43 b1bf 5e4b b2bf 01d4 a8bf
000003f0: a8c1 acbf 05e1 a9bf 2933 a7bf 1be3 cbbf
2.0201228 1.756651 2.8165083 3.3595333 3.3027494 3.2804532 3.2692041 3.2240937
3.2725565 3.2545836 3.2589622 0.9713244 1.1769757 0.9255106 -0.7622056 -0.7489157
-0.77181023 -0.7548024 -0.75822794 -0.74781936 -0.7606656 -0.754913 -0.7505578 -0.7654585
-0.7478457 -0.7581212 -0.7694549 -0.77084166 -0.74913305 -0.7498063 -0.7314219 -0.730267
-0.7429353 -0.7255664 -0.7320106 -0.7318114 -0.7436151 -0.7455059 -0.73022234 -0.7332716
-0.7348242 -0.72932404 -0.7410035 -0.728735 -0.745402 -0.7508394 -0.75206953 -0.75629604
-0.75813454 -0.74940896 -0.74977833 -0.74964136 -0.7553491 -0.7487314 -0.7606155 0.785924
0.82447165 0.82446325 0.75089514 0.79406554 0.7846835 0.8157746 0.8174725 0.8061924
0.76878446 0.97898287 1.4504564 1.4078398 1.4637849 1.4017026 1.4561554 1.422881
1.769569 1.3987095 1.4301562 1.4135903 1.4548669 1.425013 1.4534184 1.3899782
-0.7605582 -0.74193 -0.7693866 -0.73241174 -0.5018186 -0.7593594 -0.77236086 -0.7413913
-0.76319295 -0.73102325 -0.83215296 -0.79815024 -0.8292111 -0.7955951 -0.83146584 -0.7979744
1.6324692 1.5217277 1.7103733 1.5125073 1.6609912 1.5640389 -0.73525965 0.19259872
0.24245666 0.2818474 0.24089284 0.33907127 0.38276803 0.3511984 0.34875575 0.3476662
1.5561181 1.3435261 1.1311221 1.2343419 1.1556292 1.1740779 1.1773963 1.1247207
1.2352759 1.149433 0.28804025 -0.46802476 -1.3067288 -1.2586888 -1.2830691 -1.260755
-1.2820452 -1.2743281 -1.2947731 -1.2695693 -1.2778156 -1.2574123 3.5699573 3.3628964
3.435438 3.2697055 3.442017 3.230225 -0.029652223 0.0024280313 -0.9948967 0.28616422
3.0632048 2.824042 4.0114694 3.9252038 3.9432418 3.6771424 0.21820532 0.23829176
-0.13345216 -0.22919273 -0.13828982 -0.11705045 -1.2111034 -1.177625 0.24786435 -1.1753514
0.6835885 0.50697756 0.015344174 0.12415922 0.6946804 0.5260319 1.3772411 1.2651072
1.3545287 1.2183678 1.3813983 -0.17574152 -1.3960223 -0.7607544 -1.417722 -1.3308401
-1.410094 -1.3415906 -1.3295941 -1.2872604 -1.3315808 -1.2911415 0.5143635 -1.2507995
0.59607196 0.45446047 0.5326723 0.45505452 1.5542374 1.3765248 1.5418173 1.3903553
1.52903 1.3836572 1.544976 1.384055 1.5055456 1.3882287 0.7672046 0.5495151
0.7773649 0.48864505 -0.30346525 -0.551054 -1.1531856 -1.1552238 -1.1587347 -1.1607252
-1.1544491 -1.1599858 0.299485 0.20767036 0.3208661 0.2013969 0.32779703 0.22369361
1.3010472 1.14141 1.3124573 1.1703465 1.3072025 1.1174283 0.5567214 -1.2506285
-1.3815554 -1.3438023 -1.3889079 -1.3419272 -1.3878931 -1.3450485 -1.3875068 -1.3412863
-1.3900534 -1.342676 -1.3869462 -1.3450476 -1.4232577 -1.3886689 -1.4242817 -1.3970449
-1.4318264 -1.3962634 -1.3392072 -1.1381533 -1.4211867 -1.3868749 -1.4252579 -1.3978734
-1.4225087 -1.384866 -1.392925 -1.3189698 -1.3496599 -1.3271796 -1.3062488 -1.5928682

l1.bias f4 [8]
00000000: 56d4 113f 50c0 4c3f 1587 ae3f 3f81 6a3f
00000010: 6a53 543f 1c94 633f 1b86 5a3f dc37 5e3f
0.56964624 0.79980946 1.3634974 0.91603464 0.8293978 0.8889787 0.8536088 0.86803985

l2.weight f4 [8, 8]
00000000: 245b 85bf c934 40be df1a 6f40 045f 2140
00000010: a392 ccbf ac5a 993f 9cb9 2440 beda b63f
00000020: 82fe 52c0 7297 1440 491b d03f 610d 48be
00000030: 5a2f d53f 4e36 76bb ab79 a8bf a9fc 4b3c
00000040: 66e9 79bf d2df cabf 694e cebf 826e 77bf
00000050: a2c8 853f ebfc 5640 a632 9e3f 1332 873e
00000060: 539f 843f 4cc6 f4bc f008 28c0 d156 a13f
00000070: 6433 7cbf 62d4 9f3f d779 0340 c5af b63f
00000080: 40fe 923f 0583 c13f 0f1d 1fc0 94ab 0dbf
00000090: 6c80 a43f a907 cfbc 20ee 4dbe 03a6 793f
000000a0: d459 f43f 7a73 12c0 9962 cd3f 783d a23f
000000b0: b719 863e 748a 47be 55f7 85bf 61a0 d3be
000000c0: ced5 4840 41a9 b83f e6f6 0340 5767 eebf
000000d0: d6f6 eb3e 7298 f6bf 3ae5 173e 07c8 68be
000000e0: fab7 06c0 c93e babf 369f 6c3f 6d96 1940
000000f0: 54f6 583f 46aa 5dbf d6c1 eebf 250d e13f
-1.0418439 -0.18770136 3.736015 2.5214243 -1.598225 1.1980796 2.5738287 1.4285505
-3.296784 2.3217435 1.6258327 -0.19536354 1.6655076 -0.003756899 -1.316213 0.012450376
-0.9762176 -1.5849555 -1.6117679 -0.96652997 1.0451853 3.359187 1.2359207 0.2640539
1.0361122 -0.029879712 -2.6255455 1.2604619 -0.98515916 1.2486689 2.0543115 1.4272391
1.1483841 1.5118109 -2.4861486 -0.5533993 1.2851691 -0.025272207 -0.20110369 0.9751894
1.9089913 -2.2882981 1.6045715 1.2675009 0.26191494 -0.1948641 -1.0466105 -0.41333297
3.1380496 1.4426652 2.0619445 -1.8625287 0.46086758 -1.9265273 0.14833537 -0.22732554
-2.104979 -1.455041 0.92430437 2.3998063 0.84750867 -0.8658794 -1.8652904 1.7582136

l2.bias f4 [8]
00000000: 88f1 853f 2fd4 803f d7b6 f73e 76be 81bf
00000010: a580 f7bd b9f6 ec3d f456 c1bd b1b5 9fbe
1.0464334 1.0064753 0.48381683 -1.0136249 -0.12085084 0.11570496 -0.09440413 -0.31193307

l3.weight f4 [99, 8]
00000000: 87b4 debc 070b fe3f 4784 d9c0 0bce 6fc0
00000010: 6918 01c1 5d4d cfc0 ad19 84be 9d9f 18c0
00000020: 40e2 04c0 2df7 ec3f 7526 813e afe2 37c0
00000030: ac43 053e 0a21 abc0 d032 d6bf 97ff e1c0
00000040: 3e7f 0bbf 25d9 19bf 3f4c eec0 cc17 683e
00000050: 5eac d23d 82c0 be3e 729e dcbf 1e4e 54c0
00000060: cb20 743e 5489 8d3e e8bd 22bf f4ba 88c0
00000070: 2c9b 12c1 e456 933f 10a5 92c0 186b 13c1
00000080: bdfb 3c3e e3e7 f9be b6a1 e0c0 6f6c efc0
00000090: 5bae e1c0 6c84 8a3f 10cc ebbf 20f3 df3e
000000a0: 7519 a4bc f28d 7bbe d7e7 06c1 9ce7 293e
000000b0: 74d7 cfbe 8edd 6ac0 d608 0dbf fb96 11c1
000000c0: 351e cdbf b769 a23f e9ae 4e3f fb11 b1c0
000000d0: b5f4 33c0 1f36 f13e e86a 80c0 1a86 b9c0
000000e0: 91a2 153f fc58 cdc0 3720 d0c0 30af 9bbf
000000f0: 4498 04c1 2c5f bfbe 02dd 503f 0a9e 94bf
00000100: aee3 673e 751a 9c3c a04f 18c0 120e 28c1
00000110: 57bd 02c1 254b 6dbf 844c b4bf 7230 c4be
00000120: f1cf 423f fb60 6fbf 598c edc0 b4e0 a3bf
00000130: 64fd d3c0 a492 04be 5766 ce3e 9bb6 87c0
00000140: 8d3c 183f d974 953f 8005 03c1 bf39 0ac0
00000150: 1fd4 87c0 4693 c7bf 163e 95be e2a0 c4c0
00000160: 35c8 eabe 8c37 99bf aad7 2dc0 bd98 cfc0
00000170: 3992 29c1 6bde b53f 173b 06bf 850b 8a3f
00000180: 61de abbe eb38 18c1 9bcd 823f 4528 3cbf
00000190: bb4e a2bf 15d8 42c0 a15f 623e 34cc d3c0
000001a0: 26d6 243f 9c77 753e 1572 a8c0 3d27 773e
000001b0: db01 27c0 da83 0ec1 5e7d bcbe fa28 95c0
000001c0: ad6f 033d 1364 c03f f6ff 16c0 261f b4c0
000001d0: a4ed 82c0 a2f7 dbbf 1943 13c0 e441 c9c0
000001e0: 32e2 c8bf 8c4e b4c0 604b 12c1 ba80 183f
000001f0: d9e9 053f dd27 f1bf ecb4 97be 5555 bdc0
00000200: 05fc b0bc 69ac 513e 3ca5 2fc0 fc1e fdc0
00000210: 0ea6 aabf c411 d9be daa3 f5bd 1c8d f2c0
00000220: 851b 863e 492d 253f 5ab7 96bf 9e4b e7c0
00000230: 410d 09c0 3de9 09c1 b6a3 3ebe bee1 85c0
00000240: bbcc dfc0 fe58 fc3f 8782 1040 8632 6fc0
00000250: 8aac 663d 309a 87c0 68e0 bebf d1cc 1cc1
00000260: 129f ffbf b180 aebf 6686 c3c0 4b3a e3c0
00000270: 1d13 12c0 d692 a53f cf8e fcbe ed19 3a40
00000280: e08b 4ac0 249f 66c0 5607 a4c0 1bda b93f
00000290: 1245 e7bf c376 aa3d 080b e3bd 3690 5ec0
000002a0: f532 a9bc 988b ef3f d1f8 d2c0 88ec a3c0
000002b0: 1c03 50bf f7ed b3c0 0581 81bf fd8c dac0
000002c0: ea7f a43e a5d7 013e 085e 60c0 27cb dcc0
000002d0: 1003 d7c0 6812 86bf 1873 d03e 1d17 8dc0
000002e0: 8b02 4ac0 f373 c8bf e235 6140 1fb4 f3bf
000002f0: c467 ddbf 8487 18bf 69cc 52c0 777b 25c1
00000300: 0f86 33bf 4d4c 15c1 1d42 993f c5ef db3f
00000310: c915 cd3f eb7a 08c1 e720 97c0 0487 01c1
00000320: 810d 3a3f ff15 cfbf a6df 63bf 2339 81bf
00000330: e45f 0dc1 8bc0 13c0 3345 2cc1 a50e c2bc
00000340: 15bc 29bf 0018 bc3f ef14 4cbf 000e 4ac0
00000350: a121 e8c0 bdbe 253e cde3 14c1 c098 bbbe
00000360: 79a0 a0bf edbe 04c1 7ed2 94bf 51e0 49bf
00000370: cda5 26c0 77d3 5340 e3af 14c1 8cf7 c63f
00000380: 1bd1 28bf d2b2 3fc1 72a3 103f e546 c93f
00000390: 138f 0b40 5e99 d6be ce15 20c1 1aab 1ec0
000003a0: 4b33 553e 7057 46be 8fcd 93bf 442c 3e3e
000003b0: 6a40 39bf c668 8bc1 647a c2bf 8773 c53e
000003c0: 38ec d43e 8128 f7bd 8237 91bf 27a6 1d3c
000003d0: 4f71 96bf d0f8 20c1 15cb c3bf 4d85 dd3d
000003e0: eca0 e0be 5156 5bc1 2ad6 5e3f a532 c43f
000003f0: 874e 4fc0 3e53 90bf 3bbe 70c0 0577 05c1
-0.027185692 1.9847115 -6.797397 -3.7469509 -8.0684595 -6.4781938 -0.2580084 -2.384742
-2.0763092 1.8512932 0.25224653 -2.8732107 0.13014096 -5.347783 -1.6734257 -7.06245
-0.5449103 -0.6009696 -7.4468074 0.22665328 0.10286783 0.37256247 -1.7235854 -3.317268
0.23840635 0.27643836 -0.63571024 -4.2728214 -9.162884 1.1510892 -4.582649 -9.213646
0.18455406 -0.48809728 -7.01974 -7.4819865 -7.0525336 1.0821662 -1.842165 0.43740177
-0.02003167 -0.24565867 -8.431602 0.16592258 -0.40594065 -3.6697726 -0.5509161 -9.09936
-1.6024843 1.2688512 0.8073564 -5.533445 -2.8118107 0.47111604 -4.01305 -5.79762
0.5845118 -6.4171124 -6.5039325 -1.2162838 -8.287174 -0.37377298 0.8158723 -1.161073
0.22645447 0.019055584 -2.37986 -10.503435 -8.171226 -0.92692786 -1.4085851 -0.3831821
0.76098543 -0.93507355 -7.4233823 -1.2802949 -6.6246815 -0.12946564 0.40312454 -4.2410407
0.59467393 1.1676284 -8.188843 -2.1597745 -4.2446437 -1.5591819 -0.2914893 -6.144639
-0.4585587 -1.1970077 -2.716288 -6.487395 -10.598199 1.4208502 -0.52433914 1.0784765
-0.335681 -9.513896 1.0218996 -0.73498946 -1.2680277 -3.0444386 0.22106792 -6.618677
0.64389265 0.23971409 -5.263926 0.24136062 -2.6094882 -8.90719 -0.36814398 -4.661252
0.032088924 1.503054 -2.3593726 -5.6288023 -4.091509 -1.7184947 -2.3009703 -6.2892933
-1.5694029 -5.6345882 -9.143402 0.5957142 0.5230995 -1.884029 -0.2963022 -5.9166665
-0.021604547 0.20475926 -2.74446 -7.9100323 -1.3331926 -0.42396367 -0.11994143 -7.5797253
0.2619287 0.64522225 -1.1774704 -7.2279806 -2.141434 -8.619443 -0.18617138 -4.1838064
-6.9937415 1.9714658 2.2579668 -3.7374587 0.05631689 -4.2375717 -1.4912233 -9.800004
-1.997042 -1.3633024 -6.110156 -7.100866 -2.2824166 1.2935436 -0.49327704 2.9078324
-3.1647873 -3.6034632 -5.1258955 1.4519686 -1.8067954 0.08323433 -0.110860884 -3.477552
-0.020654181 1.8714476 -6.592873 -5.1226234 -0.81254745 -5.6227984 -1.0117499 -6.8297105
0.3212884 0.12679918 -3.5057392 -6.899799 -6.719124 -1.0474367 0.4071281 -4.4090714
-3.1564052 -1.5660385 3.5189137 -1.9039344 -1.7297292 -0.5958178 -3.2937262 -10.342643
-0.7012643 -9.331128 1.1973301 1.7182547 1.6022273 -8.530009 -4.7227664 -8.095463
0.72676855 -1.6178588 -0.89013135 -1.0095562 -8.835911 -2.308627 -10.766894 -0.023688624
-0.66302615 1.4694824 -0.7971944 -3.1571045 -7.254105 0.16186042 -9.305615 -0.36639977
-1.2548972 -8.296613 -1.1626737 -0.78857905 -2.6038697 3.3097818 -9.292941 1.5544295
-0.6594407 -11.981157 0.564994 1.572476 2.1806076 -0.41913885 -10.005323 -2.4791932
0.20820348 -0.19369292 -1.1547107 0.18571573 -0.72363913 -17.426159 -1.5193601 0.38564703
0.4158647 -0.120682724 -1.1345065 0.009622133 -1.1753329 -10.060745 -1.5296351 0.10816441
-0.43872774 -13.708573 0.8704554 1.5327955 -3.239168 -1.1275403 -3.7616107 -8.3415575

l3.bias f4 [99]
00000000: 64ce 483e e2d5 a7bf b955 f8bf c563 94c0
00000010: 67da eb3e 4d1e 23c0 9fda 2bc0 9ac5 5ec0
00000020: b3db 8ebf e281 47c0 d30d 70bf de86 bfbf
00000030: 5f67 7bc0 f395 d3bf 511e 36c0 2269 4ebf
00000040: 42cf 69c0 b23b 85c0 6aab 85c0 b7c5 29c0
00000050: 9de6 adbf 3e13 20c0 33d8 b4bf 8c36 c7c0
00000060: 4bf3 10bf ca73 11c0 24d2 97bf a9ba a83f
00000070: 7e6c be3f 184f 2e3e 6a61 b7bd c193 b5c0
00000080: 5280 1abf 9e50 7dc0 c4bc 3ec0 9211 e6bf
00000090: 9256 553e f7c8 4ebf 4e08 503e 894c 96c0
000000a0: e770 60bf 6a7b 32bf 80d5 6abf cb07 193d
000000b0: d366 3ebf 94ae 11c0 2e4d 2cc0 65e4 40c0
000000c0: 412e af3e 3a5c 9ebe 51ff e8bd 8c7a f2bf
000000d0: 12b0 5dbf 6785 c0c0 9609 f2bc 2979 a9bd
000000e0: 94c3 19bf bfa3 8b3c 7fd3 f9bd 1dc9 0ec0
000000f0: cd2f 92c0 ee70 18c0 c4c0 efbf d0f1 63bd
00000100: 1b87 9cbf 2296 84c0 41d2 4bc0 6df6 08c0
00000110: 3700 973e ec3c 47c0 167f 47c0 4da2 b5c0
00000120: 468c 3bbf f4d6 adbf 2a71 23c0 fcbd 8ac0
00000130: f653 09c0 f9be 1dc0 778e c33f 178d f2bf
00000140: 5242 14c0 066c efbf 20d6 63c0 2493 69c0
00000150: ee23 b6bf fad9 60c0 96c2 20c0 e522 34c0
00000160: 2d66 14c0 a1eb e9bf 1ea2 f4bf fab8 b13e
00000170: 03ec dabe 9db6 36c0 699f de3f 6f26 39c0
00000180: ed02 21c0 56d8 8dbf df99 5bc0
0.19609982 -1.3112147 -1.940116 -4.637179 0.46065065 -2.5487244 -2.6852186 -3.4808106
-1.1160797 -3.1173024 -0.93771094 -1.4963033 -3.9281843 -1.6530136 -2.8456004 -0.8062917
-3.653275 -4.163537 -4.1771746 -2.6526926 -1.3586003 -2.5011744 -1.4128479 -6.2254086
-0.56621236 -2.2726922 -1.1861005 1.3181964 1.4876859 0.1702236 -0.08954127 -5.6742864
-0.6035205 -3.9580455 -2.9802713 -1.7974112 0.20833805 -0.807754 0.20315668 -4.6968427
-0.87672275 -0.69719565 -0.91732025 0.037360948 -0.7437565 -2.2762804 -2.6922107 -3.01394
0.34214976 -0.30929738 -0.11376823 -1.8943648 -0.86596787 -6.0162845 -0.029545587 -0.082750626
-0.60064054 0.017045854 -0.12198543 -2.231025 -4.568335 -2.3818927 -1.8730702 -0.055650532
-1.2228731 -4.1433268 -3.1847079 -2.1400406 0.2949235 -3.1130934 -3.1171317 -5.676062
-0.73260915 -1.3581223 -2.553782 -4.3356915 -2.1457496 -2.464781 1.5277852 -1.8949307
-2.3165479 -1.8704841 -3.5599442 -3.6496058 -1.4229715 -3.5133042 -2.5118766 -2.8146298
-2.3187363 -1.8275033 -1.9111974 0.34711438 -0.42758188 -2.8548958 1.7392398 -2.8929708
-2.5158036 -1.1081645 -3.4312665
